…
Epoch 13: train loss = 0.1711208306, val loss = 0.1098527486
Epoch 14: train loss = 0.1646990243, val loss = 0.1156612098
Epoch 15: train loss = 0.1691662703, val loss = 0.1124571941
Epoch 16: train loss = 0.1652644084, val loss = 0.1122867903
Epoch 17: train loss = 0.1762557101, val loss = 0.1044512654
Epoch 18: train loss = 0.2037217185, val loss = 0.1099124687
Epoch 19: train loss = 0.1745323708, val loss = 0.1126405444
Epoch 20: train loss = 0.1645846857, val loss = 0.1120830382
0.11637946596735489
ParametricCNNLSTM(
  (lstm): LSTM(7, 40, num_layers=2, batch_first=True, dropout=0.2)
  (dense1): Linear(in_features=40, out_features=20, bias=True)
  (conv1): Conv1d(20, 32, kernel_size=(2,), stride=(1,))
  (batch1): BatchNorm1d(32, eps=1e-05, momentum=0.1, affine=True, track_running_stats=True)
  (conv2): Conv1d(32, 10, kernel_size=(1,), stride=(1,), padding=(2,))
  (batch2): BatchNorm1d(10, eps=1e-05, momentum=0.1, affine=True, track_running_stats=True)
  (conv3): Conv1d(10, 1, kernel_size=(2,), stride=(1,), padding=(2,))
  (batch3): BatchNorm1d(1, eps=1e-05, momentum=0.1, affine=True, track_running_stats=True)
  (dense2): Linear(in_features=26, out_features=10, bias=True)
  (dense3): Linear(in_features=10, out_features=1, bias=True)
  (denseLast): Linear(in_features=1, out_features=1, bias=True)
  (relu): ReLU()
  (dropout): Dropout(p=0.2, inplace=False)
)
(40000, 7) (5000, 7) (5000, 7)
torch.Size([39980, 1, 1])
GPU is availible:  False
Epoch 1: train loss = 0.5334842788, val loss = 0.1704653256
Epoch 2: train loss = 0.2195236516, val loss = 0.1535845011
Epoch 3: train loss = 0.1919928678, val loss = 0.1960554484
Epoch 4: train loss = 0.1836997906, val loss = 0.1076432669
…
