…
Epoch 13: train loss = 0.1354685563, val loss = 0.0889807342
Epoch 14: train loss = 0.1292414464, val loss = 0.0873625002
Epoch 15: train loss = 0.1327184597, val loss = 0.0897005231
Epoch 16: train loss = 0.1302272099, val loss = 0.0895569439
Epoch 17: train loss = 0.1277515418, val loss = 0.0891794249
Epoch 18: train loss = 0.1324205641, val loss = 0.0910100597
Epoch 19: train loss = 0.1304416444, val loss = 0.0865102155
Epoch 20: train loss = 0.1316302438, val loss = 0.0909915074
0.08808952105130588
ParametricCNNLSTM(
  (lstm): LSTM(7, 40, num_layers=2, batch_first=True, dropout=0.2)
  (dense1): Linear(in_features=40, out_features=20, bias=True)
  (conv1): Conv1d(20, 32, kernel_size=(2,), stride=(1,))
  (batch1): BatchNorm1d(32, eps=1e-05, momentum=0.1, affine=True, track_running_stats=True)
  (conv2): Conv1d(32, 10, kernel_size=(1,), stride=(1,), padding=(2,))
  (batch2): BatchNorm1d(10, eps=1e-05, momentum=0.1, affine=True, track_running_stats=True)
  (conv3): Conv1d(10, 1, kernel_size=(2,), stride=(1,), padding=(2,))
  (batch3): BatchNorm1d(1, eps=1e-05, momentum=0.1, affine=True, track_running_stats=True)
  (dense2): Linear(in_features=26, out_features=10, bias=True)
  (dense3): Linear(in_features=10, out_features=1, bias=True)
  (denseLast): Linear(in_features=1, out_features=1, bias=True)
  (relu): ReLU()
  (dropout): Dropout(p=0.2, inplace=False)
)
(40000, 7) (5000, 7) (5000, 7)
torch.Size([39980, 1, 1])
GPU is availible:  False
Epoch 1: train loss = 0.5502899575, val loss = 0.1643430616
Epoch 2: train loss = 0.2515711876, val loss = 0.0985303884
Epoch 3: train loss = 0.1504582786, val loss = 0.0909162376
Epoch 4: train loss = 0.1348329625, val loss = 0.0841722063
…
