…
Epoch 13: train loss = 1.0428494982, val loss = 0.8345147101
Epoch 14: train loss = 1.0428494017, val loss = 0.8345143264
Epoch 15: train loss = 1.0428494211, val loss = 0.8345139377
Epoch 16: train loss = 1.0428495135, val loss = 0.8345135555
Epoch 17: train loss = 1.0428496510, val loss = 0.8345131864
Epoch 18: train loss = 1.0428498158, val loss = 0.8345128338
Epoch 19: train loss = 1.0428499957, val loss = 0.8345124993
Epoch 20: train loss = 1.0428501828, val loss = 0.8345121834
0.8114758992820589
ParametricCNNLSTM(
  (lstm): LSTM(7, 40, num_layers=2, batch_first=True, dropout=0.2)
  (dense1): Linear(in_features=40, out_features=20, bias=True)
  (conv1): Conv1d(20, 32, kernel_size=(2,), stride=(1,))
  (batch1): BatchNorm1d(32, eps=1e-05, momentum=0.1, affine=True, track_running_stats=True)
  (conv2): Conv1d(32, 10, kernel_size=(1,), stride=(1,), padding=(2,))
  (batch2): BatchNorm1d(10, eps=1e-05, momentum=0.1, affine=True, track_running_stats=True)
  (conv3): Conv1d(10, 1, kernel_size=(2,), stride=(1,), padding=(2,))
  (batch3): BatchNorm1d(1, eps=1e-05, momentum=0.1, affine=True, track_running_stats=True)
  (dense2): Linear(in_features=26, out_features=10, bias=True)
  (dense3): Linear(in_features=10, out_features=1, bias=True)
  (denseLast): Linear(in_features=1, out_features=1, bias=True)
  (relu): ReLU()
  (dropout): Dropout(p=0.2, inplace=False)
)
(40000, 7) (5000, 7) (5000, 7)
torch.Size([39980, 1, 1])
GPU is availible:  False
Epoch 1: train loss = 1.0578343866, val loss = 0.8332461093
Epoch 2: train loss = 1.0452652610, val loss = 0.8331011478
Epoch 3: train loss = 1.0452999450, val loss = 0.8339360539
Epoch 4: train loss = 1.0436500208, val loss = 0.8341422633
…
