…
Epoch 13: train loss = 0.1671322964, val loss = 0.1155792887
Epoch 14: train loss = 0.1677060962, val loss = 0.1229061173
Epoch 15: train loss = 0.2658671600, val loss = 0.1315978818
Epoch 16: train loss = 0.1997642873, val loss = 0.1347895678
Epoch 17: train loss = 0.1847610442, val loss = 0.1192663947
Epoch 18: train loss = 0.1741468098, val loss = 0.1233676364
Epoch 19: train loss = 0.2048996140, val loss = 0.1928808573
Epoch 20: train loss = 0.2782001050, val loss = 0.1977396977
0.18922947455147043
ParametricCNNLSTM(
  (lstm): LSTM(7, 40, num_layers=2, batch_first=True, dropout=0.2)
  (dense1): Linear(in_features=40, out_features=20, bias=True)
  (conv1): Conv1d(20, 32, kernel_size=(2,), stride=(1,))
  (batch1): BatchNorm1d(32, eps=1e-05, momentum=0.1, affine=True, track_running_stats=True)
  (conv2): Conv1d(32, 10, kernel_size=(1,), stride=(1,), padding=(2,))
  (batch2): BatchNorm1d(10, eps=1e-05, momentum=0.1, affine=True, track_running_stats=True)
  (conv3): Conv1d(10, 1, kernel_size=(2,), stride=(1,), padding=(2,))
  (batch3): BatchNorm1d(1, eps=1e-05, momentum=0.1, affine=True, track_running_stats=True)
  (dense2): Linear(in_features=26, out_features=10, bias=True)
  (dense3): Linear(in_features=10, out_features=1, bias=True)
  (denseLast): Linear(in_features=1, out_features=1, bias=True)
  (relu): ReLU()
  (dropout): Dropout(p=0.2, inplace=False)
)
(40000, 7) (5000, 7) (5000, 7)
torch.Size([39980, 1, 1])
GPU is availible:  False
Epoch 1: train loss = 0.7069808910, val loss = 0.3189971284
Epoch 2: train loss = 0.4251552959, val loss = 0.2306120891
Epoch 3: train loss = 0.4140206581, val loss = 0.2617211142
Epoch 4: train loss = 0.3920469263, val loss = 0.3111208324
…
