…
Epoch 13: train loss = 0.4638650209, val loss = 0.2683577130
Epoch 14: train loss = 0.3882702480, val loss = 0.3091589737
Epoch 15: train loss = 0.4637298920, val loss = 0.3159985562
Epoch 16: train loss = 0.5451496040, val loss = 0.3262173598
Epoch 17: train loss = 0.5887543166, val loss = 0.3622212746
Epoch 18: train loss = 0.5141766724, val loss = 0.3315100728
Epoch 19: train loss = 0.5016511902, val loss = 0.3402074167
Epoch 20: train loss = 0.6251817010, val loss = 0.3860266970
0.3690157818191109
ParametricCNNLSTM(
  (lstm): LSTM(7, 40, num_layers=2, batch_first=True, dropout=0.2)
  (dense1): Linear(in_features=40, out_features=20, bias=True)
  (conv1): Conv1d(20, 32, kernel_size=(2,), stride=(1,))
  (batch1): BatchNorm1d(32, eps=1e-05, momentum=0.1, affine=True, track_running_stats=True)
  (conv2): Conv1d(32, 10, kernel_size=(1,), stride=(1,), padding=(2,))
  (batch2): BatchNorm1d(10, eps=1e-05, momentum=0.1, affine=True, track_running_stats=True)
  (conv3): Conv1d(10, 1, kernel_size=(2,), stride=(1,), padding=(2,))
  (batch3): BatchNorm1d(1, eps=1e-05, momentum=0.1, affine=True, track_running_stats=True)
  (dense2): Linear(in_features=26, out_features=10, bias=True)
  (dense3): Linear(in_features=10, out_features=1, bias=True)
  (denseLast): Linear(in_features=1, out_features=1, bias=True)
  (relu): ReLU()
  (dropout): Dropout(p=0.2, inplace=False)
)
(40000, 7) (5000, 7) (5000, 7)
torch.Size([39980, 1, 1])
GPU is availible:  True
Running on GPU
X_train and y_train are on GPU:  True True
X_test and y_test are on GPU:  True True
X_cv and y_cv are on GPU:  True True
size of X_train: torch.Size([39980, 20, 7]) and y_train: torch.Size([39980, 1, 1])
…
